…
  0%|          | 0/200 [00:00<?, ?it/s]======user config========
{'Erase': True,
 'activation': 'GELU',
 'activation_positive': True,
 'batchsize': 128,
 'datapath': 'default',
 'download': False,
 'lr': 0.1,
 'max_epoch': 200,
 'mode': 'train',
 'model_chosen': 'ResNet9_MaxDropout',
 'opt': 'SGD',
 'scheduler': 'Cos',
 'show_net': True,
 'weight_decay': 0.0005}
==========end============
数据集位置:  /remote-home/jiaxinghua/NNDL_PJ2
Load Time Cost: 6.066741943359375
==> Building model ResNet9_MaxDropout..
ResNet9_MaxDropout(
  (dropout): MaxDropout()
  (layer): Sequential(
    (0): cbr(
      (layer): Sequential(
        (0): Conv2d(3, 64, kernel_size=(3, 3), stride=(1, 1), padding=(1, 1), bias=False)
        (1): BatchNorm2d(64, eps=1e-05, momentum=0.1, affine=True, track_running_stats=True)
        (2): ReLU(inplace=True)
      )
    )
    (1): cbr(
      (layer): Sequential(
        (0): Conv2d(64, 128, kernel_size=(5, 5), stride=(2, 2), padding=(2, 2), bias=False)
        (1): BatchNorm2d(128, eps=1e-05, momentum=0.1, affine=True, track_running_stats=True)
        (2): ReLU(inplace=True)
      )
    )
    (2): Residual(
      (module): Sequential(
        (0): cbr(
          (layer): Sequential(
            (0): Conv2d(128, 128, kernel_size=(3, 3), stride=(1, 1), padding=(1, 1), bias=False)
            (1): BatchNorm2d(128, eps=1e-05, momentum=0.1, affine=True, track_running_stats=True)
            (2): ReLU(inplace=True)
          )
        )
        (1): cbr(
          (layer): Sequential(
            (0): Conv2d(128, 128, kernel_size=(3, 3), stride=(1, 1), padding=(1, 1), bias=False)
            (1): BatchNorm2d(128, eps=1e-05, momentum=0.1, affine=True, track_running_stats=True)
            (2): ReLU(inplace=True)
          )
        )
      )
    )
    (3): MaxDropout()
    (4): cbr(
      (layer): Sequential(
        (0): Conv2d(128, 256, kernel_size=(3, 3), stride=(1, 1), padding=(1, 1), bias=False)
        (1): BatchNorm2d(256, eps=1e-05, momentum=0.1, affine=True, track_running_stats=True)
        (2): ReLU(inplace=True)
      )
    )
    (5): MaxPool2d(kernel_size=2, stride=2, padding=0, dilation=1, ceil_mode=False)
    (6): Residual(
      (module): Sequential(
        (0): cbr(
          (layer): Sequential(
            (0): Conv2d(256, 256, kernel_size=(3, 3), stride=(1, 1), padding=(1, 1), bias=False)
            (1): BatchNorm2d(256, eps=1e-05, momentum=0.1, affine=True, track_running_stats=True)
            (2): ReLU(inplace=True)
          )
        )
        (1): cbr(
          (layer): Sequential(
            (0): Conv2d(256, 256, kernel_size=(3, 3), stride=(1, 1), padding=(1, 1), bias=False)
            (1): BatchNorm2d(256, eps=1e-05, momentum=0.1, affine=True, track_running_stats=True)
            (2): ReLU(inplace=True)
          )
        )
      )
    )
    (7): MaxDropout()
    (8): cbr(
      (layer): Sequential(
        (0): Conv2d(256, 128, kernel_size=(3, 3), stride=(1, 1), bias=False)
        (1): BatchNorm2d(128, eps=1e-05, momentum=0.1, affine=True, track_running_stats=True)
        (2): ReLU(inplace=True)
      )
    )
    (9): AMP2d(
      (layer): AdaptiveMaxPool2d(output_size=(1, 1))
    )
    (10): Flatten()
    (11): Linear(in_features=128, out_features=10, bias=False)
  )
)
==> training ..
======epoch: 1, lr: 0.09999, Loss: 1.994======
Accuracy of the network on train set: 37.88 %
  0%|          | 1/200 [00:43<2:23:34, 43.29s/it]Accuracy of the network on test set: 40.32 %
======epoch: 2, lr: 0.09998, Loss: 1.456======
Accuracy of the network on train set: 53.95 %
  1%|          | 2/200 [01:25<2:21:52, 42.99s/it]Accuracy of the network on test set: 57.44 %
…
