…
{'Erase': True,
 'activation': 'GELU',
 'activation_positive': True,
 'batchsize': 128,
 'datapath': 'default',
 'download': False,
 'loss': 'CrossEntropyLoss',
 'loss_positive': True,
 'lr': 0.1,
 'max_epoch': 200,
 'mode': 'train',
 'model_chosen': 'simp_ResNet9_k333',
 'num_classes': 10,
 'opt': 'SGD',
 'scheduler': 'Cos',
 'show_net': True,
 'weight_decay': 0.0005}
==========end============
数据集位置:  /remote-home/jiaxinghua/NNDL_PJ2
Load Time Cost: 6.138607501983643
==> Building model simp_ResNet9_k333..
simp_ResNet9_k333(
  (layer): Sequential(
    (0): cbr(
      (layer): Sequential(
        (0): Conv2d(3, 32, kernel_size=(3, 3), stride=(1, 1), padding=(1, 1), bias=False)
        (1): BatchNorm2d(32, eps=1e-05, momentum=0.1, affine=True, track_running_stats=True)
        (2): GELU()
      )
    )
    (1): cbr(
      (layer): Sequential(
        (0): Conv2d(32, 64, kernel_size=(3, 3), stride=(1, 1), padding=(2, 2), bias=False)
        (1): BatchNorm2d(64, eps=1e-05, momentum=0.1, affine=True, track_running_stats=True)
        (2): GELU()
      )
    )
    (2): cbr(
      (layer): Sequential(
        (0): Conv2d(64, 128, kernel_size=(3, 3), stride=(2, 2), padding=(2, 2), bias=False)
        (1): BatchNorm2d(128, eps=1e-05, momentum=0.1, affine=True, track_running_stats=True)
        (2): GELU()
      )
    )
    (3): Residual(
      (module): Sequential(
        (0): cbr(
          (layer): Sequential(
            (0): Conv2d(128, 32, kernel_size=(1, 1), stride=(1, 1), bias=False)
            (1): BatchNorm2d(32, eps=1e-05, momentum=0.1, affine=True, track_running_stats=True)
            (2): GELU()
          )
        )
        (1): cbr(
          (layer): Sequential(
            (0): Conv2d(32, 32, kernel_size=(3, 3), stride=(1, 1), padding=(1, 1), bias=False)
            (1): BatchNorm2d(32, eps=1e-05, momentum=0.1, affine=True, track_running_stats=True)
            (2): GELU()
          )
        )
        (2): cbr(
          (layer): Sequential(
            (0): Conv2d(32, 128, kernel_size=(1, 1), stride=(1, 1), bias=False)
            (1): BatchNorm2d(128, eps=1e-05, momentum=0.1, affine=True, track_running_stats=True)
            (2): GELU()
          )
        )
      )
    )
    (4): cbr(
      (layer): Sequential(
        (0): Conv2d(128, 256, kernel_size=(3, 3), stride=(1, 1), padding=(1, 1), bias=False)
        (1): BatchNorm2d(256, eps=1e-05, momentum=0.1, affine=True, track_running_stats=True)
        (2): GELU()
      )
    )
    (5): MaxPool2d(kernel_size=2, stride=2, padding=0, dilation=1, ceil_mode=False)
    (6): Residual(
      (module): Sequential(
        (0): cbr(
          (layer): Sequential(
            (0): Conv2d(256, 64, kernel_size=(1, 1), stride=(1, 1), bias=False)
            (1): BatchNorm2d(64, eps=1e-05, momentum=0.1, affine=True, track_running_stats=True)
            (2): GELU()
          )
        )
        (1): cbr(
          (layer): Sequential(
            (0): Conv2d(64, 64, kernel_size=(3, 3), stride=(1, 1), padding=(1, 1), bias=False)
            (1): BatchNorm2d(64, eps=1e-05, momentum=0.1, affine=True, track_running_stats=True)
            (2): GELU()
          )
        )
        (2): cbr(
          (layer): Sequential(
            (0): Conv2d(64, 256, kernel_size=(1, 1), stride=(1, 1), bias=False)
            (1): BatchNorm2d(256, eps=1e-05, momentum=0.1, affine=True, track_running_stats=True)
            (2): GELU()
          )
        )
      )
    )
    (7): cbr(
      (layer): Sequential(
        (0): Conv2d(256, 128, kernel_size=(3, 3), stride=(1, 1), bias=False)
        (1): BatchNorm2d(128, eps=1e-05, momentum=0.1, affine=True, track_running_stats=True)
        (2): GELU()
      )
    )
    (8): AMP2d(
      (layer): AdaptiveMaxPool2d(output_size=(1, 1))
    )
    (9): Flatten()
    (10): Linear(in_features=128, out_features=10, bias=False)
  )
)
==> training ..
====== epoch: 1, lr: 0.09999, Loss: 2.272 ======
Accuracy of the network on train set: 24.56 %
  0%|          | 1/200 [00:58<3:13:04, 58.21s/it]Accuracy of the network on test set: 26.25 %
====== epoch: 2, lr: 0.09998, Loss: 1.687 ======
Accuracy of the network on train set: 40.58 %
  1%|          | 2/200 [01:52<3:08:36, 57.15s/it]Accuracy of the network on test set: 44.76 %
…
