…
nput
  0%|          | 0/200 [00:00<?, ?it/s]======user config========
{'Erase': True,
 'activation': 'ReLU',
 'activation_positive': True,
 'batchsize': 128,
 'datapath': 'default',
 'download': False,
 'lr': 0.1,
 'max_epoch': 200,
 'mode': 'train',
 'model_chosen': 'simp_ResNet9_k33',
 'opt': 'SGD',
 'scheduler': 'Cos',
 'show_net': True,
 'weight_decay': 0.0005}
==========end============
数据集位置:  /remote-home/jiaxinghua/NNDL_PJ2
Load Time Cost: 5.975847244262695
==> Building model simp_ResNet9_k33..
simp_ResNet9_k33(
  (layer): Sequential(
    (0): cbr(
      (layer): Sequential(
        (0): Conv2d(3, 64, kernel_size=(3, 3), stride=(1, 1), padding=(1, 1), bias=False)
        (1): BatchNorm2d(64, eps=1e-05, momentum=0.1, affine=True, track_running_stats=True)
        (2): ReLU(inplace=True)
      )
    )
    (1): cbr(
      (layer): Sequential(
        (0): Conv2d(64, 128, kernel_size=(3, 3), stride=(2, 2), padding=(2, 2), bias=False)
        (1): BatchNorm2d(128, eps=1e-05, momentum=0.1, affine=True, track_running_stats=True)
        (2): ReLU(inplace=True)
      )
    )
    (2): Residual(
      (module): Sequential(
        (0): cbr(
          (layer): Sequential(
            (0): Conv2d(128, 32, kernel_size=(1, 1), stride=(1, 1), bias=False)
            (1): BatchNorm2d(32, eps=1e-05, momentum=0.1, affine=True, track_running_stats=True)
            (2): ReLU(inplace=True)
          )
        )
        (1): cbr(
          (layer): Sequential(
            (0): Conv2d(32, 32, kernel_size=(3, 3), stride=(1, 1), padding=(1, 1), bias=False)
            (1): BatchNorm2d(32, eps=1e-05, momentum=0.1, affine=True, track_running_stats=True)
            (2): ReLU(inplace=True)
          )
        )
        (2): cbr(
          (layer): Sequential(
            (0): Conv2d(32, 128, kernel_size=(1, 1), stride=(1, 1), bias=False)
            (1): BatchNorm2d(128, eps=1e-05, momentum=0.1, affine=True, track_running_stats=True)
            (2): ReLU(inplace=True)
          )
        )
      )
    )
    (3): cbr(
      (layer): Sequential(
        (0): Conv2d(128, 256, kernel_size=(3, 3), stride=(1, 1), padding=(1, 1), bias=False)
        (1): BatchNorm2d(256, eps=1e-05, momentum=0.1, affine=True, track_running_stats=True)
        (2): ReLU(inplace=True)
      )
    )
    (4): MaxPool2d(kernel_size=2, stride=2, padding=0, dilation=1, ceil_mode=False)
    (5): Residual(
      (module): Sequential(
        (0): cbr(
          (layer): Sequential(
            (0): Conv2d(256, 64, kernel_size=(1, 1), stride=(1, 1), bias=False)
            (1): BatchNorm2d(64, eps=1e-05, momentum=0.1, affine=True, track_running_stats=True)
            (2): ReLU(inplace=True)
          )
        )
        (1): cbr(
          (layer): Sequential(
            (0): Conv2d(64, 64, kernel_size=(3, 3), stride=(1, 1), padding=(1, 1), bias=False)
            (1): BatchNorm2d(64, eps=1e-05, momentum=0.1, affine=True, track_running_stats=True)
            (2): ReLU(inplace=True)
          )
        )
        (2): cbr(
          (layer): Sequential(
            (0): Conv2d(64, 256, kernel_size=(1, 1), stride=(1, 1), bias=False)
            (1): BatchNorm2d(256, eps=1e-05, momentum=0.1, affine=True, track_running_stats=True)
            (2): ReLU(inplace=True)
          )
        )
      )
    )
    (6): cbr(
      (layer): Sequential(
        (0): Conv2d(256, 128, kernel_size=(3, 3), stride=(1, 1), bias=False)
        (1): BatchNorm2d(128, eps=1e-05, momentum=0.1, affine=True, track_running_stats=True)
        (2): ReLU(inplace=True)
      )
    )
    (7): AMP2d(
      (layer): AdaptiveMaxPool2d(output_size=(1, 1))
    )
    (8): Flatten()
    (9): Linear(in_features=128, out_features=10, bias=False)
  )
)
==> training ..
====== epoch: 1, lr: 0.09999, Loss: 1.903 ======
Accuracy of the network on train set: 43.62 %
  0%|          | 1/200 [00:15<50:46, 15.31s/it]Accuracy of the network on test set: 45.55 %
====== epoch: 2, lr: 0.09998, Loss: 1.300 ======
Accuracy of the network on train set: 49.93 %
  1%|          | 2/200 [00:37<57:01, 17.28s/it]Accuracy of the network on test set: 49.92 %
…
